data.pth (torch, 7722 bytes, 6 tensors)

l1.weight f4 [8, 96]
-0.36859956 0.8059685 -0.1491409 -0.25470313 -0.23351742 -0.3235808 0.005117535 -0.3814446
-0.2995439 -0.056431696 0.2345618 0.71166825 -0.30834028 -0.29689014 1.2928036 0.28235364
0.18652928 0.19855148 -0.07119545 0.22141573 -0.40998083 -0.21753432 -0.21024607 -0.18757252
0.49804032 0.2677591 -0.22819811 0.36943343 -0.53535646 0.7187478 0.3672923 0.49206132
-0.14153041 0.41641065 -0.21446022 0.029335845 0.39423543 -0.20311576 -0.38650218 -0.35196888
0.53575766 0.111801594 -0.352005 -0.3526152 -0.16132404 -0.11644614 0.15585844 0.08236579
-0.16588083 0.2680545 -0.46795547 -0.15551014 0.26622227 -0.23997527 -0.2319031 0.23133561
-0.049539562 0.47015065 -0.1703061 -0.87754345 0.5484201 0.048792053 0.4233782 0.14434043
-0.47254196 0.20417516 -0.9948556 0.047275763 0.48129758 -0.25788885 0.23510149 -0.36995184
0.25309587 -0.22471401 -0.05954495 -0.43187195 0.3346616 0.5422211 -0.017383756 0.0018411388
0.29878902 0.24601153 0.124449626 0.26379156 0.28846553 0.28431433 0.2336757 -0.20066021
-0.27645385 0.6038008 0.2969554 -0.31380835 0.37083232 0.36293092 0.044450697 -0.24027771
-0.43625483 1.0131041 0.5262524 -0.07808147 0.24390328 -0.33746466 0.12569821 -0.087954916
0.25448832 0.0535561 0.16168931 0.29962283 -0.20224507 -0.17409879 1.2076808 0.47411677
-0.20855841 0.45214444 0.39338183 0.6895593 0.22495723 -0.36265355 -0.21277492 -0.84572834
0.61277854 0.41063935 -0.62087363 -0.7418531 0.82988584 0.7517304 -0.08732954 0.6709639
-0.28120416 0.39767742 0.09837074 0.24530327 0.3322928 -0.12243658 -0.25948304 -0.508346
-0.071497366 0.059634887 -0.43857297 -0.4951666 -0.09236315 -0.35322368 -0.12173122 0.31496564
0.29183593 0.4050406 0.28967017 -0.55130357 0.9249926 -0.0998529 -0.53156185 0.6247867
0.54441524 0.86530215 -0.52707666 -0.7142912 0.8340173 -0.038171854 1.1297674 -0.050499223
0.9143221 0.43628773 -0.026553443 -0.19291276 0.6283829 -0.31540617 -0.01634825 -0.437077
0.57623726 -0.05386841 -0.09263916 0.54096264 0.3907103 0.60451573 0.6445489 -0.20806554
0.10985281 -1.0130373 0.14599504 0.0071546393 0.8104064 -0.7327414 0.53871554 -0.42576194
-0.23238486 0.9760065 0.6209948 -0.36705884 0.5258142 0.44583356 -0.1578402 0.27532434
0.5101421 0.20153205 0.5594556 0.19875827 -0.22960183 0.47817817 0.4078689 0.19102514
0.67520916 -0.27924806 -0.21347718 -0.31234744 0.8673761 -0.2757217 -1.0545659 -0.00962265
-0.1915334 0.11638442 0.049288873 0.7508127 0.4898211 -0.28347597 0.5362759 0.04948543
0.57487184 -0.16409186 0.3895383 0.10828799 -0.73983914 -0.85462654 0.12086855 -0.09483937
0.5286494 -0.16831367 0.55552536 0.25750425 -0.05381513 0.07390766 -0.38023308 0.6491073
-0.5320822 0.8460016 0.79130274 0.6656407 -0.34226042 0.5451673 0.07386706 0.45339787
-0.20317431 0.69252324 -0.7036619 0.07372945 -0.055589944 0.11657567 0.4461999 0.10482695
-0.16171883 -0.0056247697 -0.02917106 0.6998346 0.09093742 -0.37908435 0.054511536 -0.46934962
00000000: 15b9 bcbe f453 4e3f 64b8 18be 7368 82be
00000010: 311f 6fbe 62ac a5be ffb0 a73b b54c c3be
00000020: d15d 99be ec24 67bd f830 703e e42f 363f
00000030: c7de 9dbe fc01 98be 977a a53f a890 903e
00000040: 8801 3f3e 1451 4b3e ecce 91bd ceba 623e
00000050: 02e9 d1be 51c1 5ebe bf4a 57be 0313 40be
00000060: 24ff fe3e b917 893e c4ac 69be 6126 bd3e
00000070: 1f0d 09bf dbff 373f bd0d bc3e 76ef fb3e
00000080: 59ed 10be c733 d53e 769b 5bbe ba51 f03c
00000090: 3ad9 c93e 94fd 4fbe 9de3 c5be 4435 b4be
000000a0: 6a27 093f 3cf8 e43d 003a b4be fb89 b4be
000000b0: 2132 25be 507b eebd 5b99 1f3e 65af a83d
000000c0: aadc 29be 703e 893e dc97 efbe 0d3e 1fbe
000000d0: 494e 883e 14bc 75be 0278 6dbe 3ee3 6c3e
000000e0: ffe9 4abd 96b7 f03e b964 2ebe b0a6 60bf
000000f0: 4265 0c3f 2dda 473d 07c5 d83e facd 133e
00000100: 05f1 f1be 4b13 513e dbae 7ebf 3ba4 413d
00000110: a36c f63e 020a 84be 72be 703e 546a bdbe
00000120: c895 813e 6e1b 66be 68e5 73bd 521e ddbe
00000130: c458 ab3e 01cf 0a3f 6168 8ebc 5e52 f13a
00000140: e0fa 983e 72ea 7b3e 72df fe3d b00f 873e
00000150: c1b1 933e a691 913e af48 6f3e df79 4dbe
00000160: 5c8b 8dbe b092 1a3f 8a0a 983e 7dab a0be
00000170: bcdd bd3e 15d2 b93e ef11 363d 5c0b 76be
00000180: cb5c dfbe 65ad 813f 7ab8 063f 2ee9 9fbd
00000190: c8c1 793e 2bc8 acbe 08b7 003e b521 b4bd
000001a0: 4b4c 823e a45d 5b3d e291 253e 2a68 993e
000001b0: 5519 4fbe f446 32be 4995 9a3f 6fbf f23e
000001c0: 5690 55be 7a7f e73e 5869 c93e f586 303f
000001d0: 305b 663e baad b9be abe1 59be a781 58bf
000001e0: 0edf 1c3f 523f d23e 93f1 1ebf 16ea 3dbf
000001f0: 6673 543f 6771 403f d4d9 b2bd 4ac4 2b3f
00000200: fef9 8fbe 609c cb3e 9976 c93d c830 7b3e
00000210: 4822 aa3e 08c0 fabd f6da 84be f722 02bf
00000220: 366d 92bd b643 743d a38c e0be 7a86 fdbe
00000230: e428 bdbd bcd9 b4be 384e f9bd 2d43 a13e
00000240: 856b 953e 7b61 cf3e a64f 943e 3b22 0dbf
00000250: 51cc 6c3f ad7f ccbd 7014 08bf 05f2 1f3f
00000260: cc5e 0b3f 7184 5d3f 7fee 06bf cadb 36bf
00000270: 2882 553f 175a 1cbd 389c 903f 46d8 4ebd
00000280: 0311 6a3f 1b61 df3e 9b86 d9bc ec8a 45be
00000290: b4dd 203f eb7c a1be c4ec 85bc 8ec8 dfbe
000002a0: 4984 133f 1fa5 5cbd 9ab9 bdbd 877c 0a3f
000002b0: 2e0b c83e 8bc1 1a3f 2801 253f 220f 55be
000002c0: 83fa e03d 35ab 81bf b97f 153e 7771 ea3b
000002d0: cb76 4f3f f194 3bbf 43e9 093f 78fd d9be
000002e0: 4cf6 6dbe 90db 793f 84f9 1e3f 23ef bbbe
000002f0: c29b 063f 4c44 e43e dda0 21be 50f7 8c3e
00000300: ac98 023f 6b5e 4e3e 7b38 0f3f 4a87 4b3e
00000310: be1c 6bbe c5d3 f43e 31d4 d03e 189c 433e
00000320: 82da 2c3f 9af9 8ebe c399 5abe 01ec 9fbe
00000330: 5c0c 5e3f 652b 8dbe 04fc 86bf 52a8 1dbc
00000340: 5521 44be f45a ee3d 21e3 493d 4335 403f
00000350: d5c9 fa3e c323 91be 6149 093f 3cb1 4a3d
00000360: cd2a 133f b207 28be 9071 c73e 18c6 dd3d
00000370: 1966 3dbf cec8 5abf ee89 f73d 253b c2bd
00000380: 9155 073f 6b5a 2cbe e936 0e3f 99d7 833e
00000390: 416d 5cbd e65c 973d e9ad c2be e52b 263f
000003a0: 8a36 08bf 9093 583f d192 4a3f 6e67 2a3f
000003b0: c23c afbe 1690 0b3f 9d47 973d c423 e83e
000003c0: ed0c 50be 3449 313f 3023 34bf 77ff 963d
000003d0: 48b2 63bd 3abf ee3d 5074 e43e 83af d63d
000003e0: 9f99 25be fd4f b8bb 26f8 eebc 5c28 333f
000003f0: 663d ba3d 5817 c2be 7d47 5f3d 984e f0be

l1.bias f4 [8]
0.3514761 0.51081616 0.82355225 0.48538476 0.2896102 0.25079948 1.2811934 0.58760875
00000000: adf4 b33e d9c4 023f 52d4 523f 5a84 f83e
00000010: ca47 943e ca68 803e 25fe a33f 876d 163f

l2.weight f4 [8, 8]
-0.4821324 -1.0541354 2.0020669 -0.10349079 2.171504 0.038995348 0.9447083 0.25963822
1.2458411 1.0498879 0.9319156 -1.2264287 0.45770702 -0.19181949 0.5441796 1.8051934
-0.84602594 1.2629212 0.8722528 0.4401759 -1.4143728 -1.2008358 1.4639893 -0.5240399
1.2345774 1.0011756 -0.6039621 1.8661022 -0.30426446 1.9909688 -0.012494396 0.13399142
1.3611346 1.0167105 -1.1106757 1.1429456 -1.6817745 1.1435272 0.78459173 1.4484873
-0.007006824 -0.1234238 -0.08720508 0.25127813 -0.25840646 -0.16736518 -0.19064318 -0.2131401
-0.1256649 1.2290481 1.1981992 0.31570697 0.27192372 0.14814927 -0.15080518 -1.098367
-0.14346652 -0.8460423 0.3627671 -0.11208647 -0.73334646 0.26205772 1.8832285 0.674954
00000000: 0fda f6be e9ed 86bf dd21 0040 fbf2 d3bd
00000010: ecf9 0a40 96b9 1f3d 67d8 713f 4def 843e
00000020: b977 9f3f ba62 863f 0592 6e3f 9efb 9cbf
00000030: 9358 ea3e 546c 44be 5b4f 0b3f 9410 e73f
00000040: 2895 58bf 67a7 a13f f64b 5f3f bc5e e13e
00000050: 2b0a b5bf fdb4 99bf 0064 bb3f 7b27 06bf
00000060: a206 9e3f 8626 803f 439d 1abf 70dc ee3f
00000070: 8dc8 9bbe 11d8 fe3f 4cb5 4cbc 0c35 093e
00000080: a939 ae3f 9223 823f 9f2a 8ebf 0b4c 923f
00000090: 6344 d7bf 195f 923f 01db 483f 0868 b93f
000000a0: 8099 e5bb 9ec5 fcbd 9498 b2bd 87a7 803e
000000b0: da4d 84be c761 2bbe f737 43be 6641 5abe
000000c0: 4dae 00be 7351 9d3f 975e 993f 58a4 a13e
000000d0: 9639 8b3e 71b4 173e ac6c 1abe 4a97 8cbf
000000e0: e3e8 12be 3a96 58bf 9cbc b93e 978d e5bd
000000f0: 98bc 3bbf 6e2c 863e a20d f13f c9c9 2c3f

l2.bias f4 [8]
0.70921826 -0.18959251 1.0455347 0.27242213 -0.014384373 -0.28888604 -0.049455054 0.6428348
00000000: 548f 353f 8a24 42be 15d4 853f ea7a 8b3e
00000010: 6fac 6bbc dfe8 93be 6291 4abd d290 243f

l3.weight f4 [15, 8]
0.48536277 0.2178859 -1.7250515 -0.023897221 -0.28504315 -0.09906739 -2.1009014 0.2826078
-0.6277243 0.4562498 -1.6251307 0.33983627 0.50954247 -0.012048006 -0.6452098 -2.8276355
0.4486111 0.4189977 0.47718707 -1.4570613 -1.2418859 0.35196456 0.40983042 -1.441502
-1.2593801 -1.757909 0.6532659 0.43770835 0.33534983 -0.15922806 0.37227193 -1.9134874
-2.0223994 0.088994004 -1.054626 0.39640963 0.7025088 0.14770213 -1.8806754 -0.7048208
-1.3013486 0.26655054 0.51164067 0.19689412 -0.11220702 -0.32014605 -0.1352107 -0.99582
-0.0735883 0.3629515 0.4526508 -0.6944353 -0.16917607 -0.03632918 -1.5277485 0.48172754
0.6082714 -0.6188469 0.74620163 -1.0788963 -2.2074392 -0.10669112 -0.2754792 1.1613203
0.19759703 0.48821718 -1.5525992 0.014938356 -0.5321815 -0.20909211 0.34602714 -1.6935822
0.94859225 -1.1435724 -1.373246 0.2096793 -1.560957 0.34995136 0.16213281 -0.7786071
-0.040116712 -0.29326266 0.60899234 0.4367401 -1.5249921 -0.118747056 0.5837635 -1.2122593
0.2730641 -1.5011252 -1.2150096 0.866947 -0.008879874 0.090993285 -0.44292 -1.650328
0.7093798 0.8694577 -0.53366345 -0.9446915 -1.7973807 -0.061667085 -1.579443 0.06314599
-0.43849468 -1.1614743 -0.88526016 0.4787553 0.39468095 0.14007047 -2.103951 0.017058624
-0.13537562 0.11461978 -0.927488 0.22441119 0.10259875 -0.14172687 -0.27987477 -0.41742486
00000000: 7881 f83e 7b1d 5f3e 7dce dcbf 1bc4 c3bc
00000010: 2df1 91be d8e3 cabd 2b75 06c0 f8b1 903e
00000020: 8ab2 20bf 9399 e93e 4804 d0bf 05ff ad3e
00000030: 6071 023f 0065 45bc 782c 25bf fbf7 34c0
00000040: 5bb0 e53e de86 d63e dd51 f43e fc80 babf
00000050: 1ef6 9ebf b334 b43e 4bd5 d13e 2383 b8bf
00000060: 5e33 a1bf 2a03 e1bf 6f3c 273f 4f1b e03e
00000070: f9b2 ab3e ae0c 23be 6d9a be3e 28ed f4bf
00000080: fe6e 01c0 7d42 b63d fcfd 86bf 34f6 ca3e
00000090: 9ed7 333f 3a3f 173e f9b9 f0bf 236f 34bf
000000a0: 9792 a6bf 5079 883e e2fa 023f 9d9e 493e
000000b0: cbcc e5bd 2fea a3be ac74 0abe 0fee 7ebf
000000c0: 76b5 96bd c7d4 b93e d8c1 e73e 83c6 31bf
000000d0: 7e3c 2dbe e8cd 14bd 438d c3bf fea4 f63e
000000e0: adb7 1b3f c06c 1ebf 1207 3f3f 4619 8abf
000000f0: af46 0dc0 e080 dabd 9c0b 8dbe 25a6 943f
00000100: e056 4a3e 9af7 f93e 92bb c6bf 02c0 743c
00000110: 0c3d 08bf 3e1c 56be 782a b13e 4dc7 d8bf
00000120: f1d6 723f 9560 92bf 86c6 afbf 2cb6 563e
00000130: 70cd c7bf d32c b33e 2506 263e cb52 47bf
00000140: 6c51 24bd 8626 96be ece6 1b3f 669c df3e
00000150: f132 c3bf a831 f3bd 8671 153f 502b 9bbf
00000160: 0fcf 8b3e df24 c0bf 6f85 9bbf 3df0 5d3f
00000170: e47c 11bc b05a ba3d 69c6 e2be f33d d3bf
00000180: ea99 353f c894 5e3f 2b9e 08bf 4dd7 71bf
00000190: 9210 e6bf a096 7cbd 302b cabf af52 813d
000001a0: 6082 e0be 31ab 94bf 69a0 62bf 6a1f f53e
000001b0: 9f13 ca3e a26e 0f3e 22a7 06c0 87be 8b3c
000001c0: e89f 0abe c6bd ea3d db6f 6dbf 0ccc 653e
000001d0: 4b1f d23d d920 11be bf4b 8fbe b6b8 d5be

l3.bias f4 [15]
-0.12211807 0.11604806 0.084342614 0.083220765 -0.37665212 0.12644774 -0.1101994 0.14350061
-0.07898737 0.5789341 -0.19026162 0.2846789 -0.1414908 0.11476025 -0.1978229
00000000: 0a19 fabd 9baa ed3d d2bb ac3d a66f aa3d
00000010: 8cd8 c0be 847b 013e 39b0 e1bd d3f1 123e
00000020: 21c4 a1bd 0635 143f f1d3 42be 6fc1 913e
00000030: f7e2 10be 6c07 eb3d 1692 4abe
